Digits/logistic_regression/training/p10percent_training_data/weights19001.npy (npy, 5328 bytes, 1 tensors)

array f8 [10, 65]
0.6460811812703614 0.7373920847049066 -1.140807221702242 -4.534813624023923 -0.09043126785961467 -1.297770901509748 -8.472071461804017 -2.7396948225481768
0.1314717331290389 0.24591450044271201 -1.6521113489710455 1.990253404924314 5.0963226428028205 6.3751935102389625 0.7358461002929041 0.3764368528920342
0.16712359014211386 0.5327215482971647 3.250416219307849 7.887751160967956 -3.0810000296828957 -5.380353528098502 9.915722641067148 4.407273042735143
0.05033895415128942 0.46537521988749087 4.939655436689736 9.296299670557293 -10.223314802838418 -17.806377963525772 7.050052576327306 7.237362456848747
0.7758605572428816 0.14263495891956968 5.57666940292465 11.068693089892212 -12.606785712720727 -14.136226824276383 1.8035085018952148 11.443776652906433
0.5059175025630405 0.5641711095030614 4.651742922090701 16.271075544843445 -9.665431092973574 -12.155035181676288 2.3908599836745323 4.896018027668874
0.05286318114273827 0.24014198762880945 -0.998133127837737 10.303802632190415 1.4692246222424215 1.0599047504668924 7.2787229397933295 -1.0814470641046245
-0.0878614940556693 0.834792239901356 -1.367991059638224 -4.750402980920416 -0.10171710996114332 3.851076068324595 -2.473105184789226 -1.0563598343475329
-0.008880016273241555 0.9418668595884423 0.3186614123084647 -0.4771345839549106 -8.255852017422937 0.7596037833735543 -3.480739354148918 4.490854485989184
3.1634589704876017 -0.002702464897281678 0.31505651100119425 -2.4571922854305215 -18.33651585479654 -8.31826112538554 7.4267758444041965 7.979447686099076
2.8866907182048274 0.07137305058441967 0.41369095328027217 -2.588062630804403 -6.925310094513342 9.721491142655097 17.41732734159562 -1.279979949235655
2.587600250726269 0.4709227639512955 0.24892676565794325 1.7027380405693724 16.32777515921498 13.004186863433572 8.346788292544705 -4.090886385929735
-4.9700632814489305 0.8512282540426613 0.04493696302674688 3.8430447453087875 4.8860018996409895 -6.2033704174500475 4.741797543608312 -14.396637510265865
-7.699405360782181 0.16544853684413696 0.9852403503150334 -5.065726073294948 -9.505674120439558 -3.832381285636137 5.757459686737619 -5.10401584367089
-7.177641350696161 0.639383670974328 0.6422361859853859 -0.9783206471346148 -14.212731201390019 3.9297039299703873 9.03704408138944 -1.0505034185484887
-3.566794072587769 -0.1520130140569272 0.5396035899733459 -0.16992526478964526 -8.578051603345832 -5.055250412704778 7.155894609168906 11.301691277953656
-3.616296903611587 0.656298473622321 1.368902178510897 0.8039459719812903 0.40796818281949293 8.092819147640457 -4.433699317588462 -7.771107543736983
3.4289147314221 -0.4942074714887418 0.011927725814978826 0.053741574815136306 0.7829803346750522 4.815326950507207 3.590333932094834 7.940788092093201
-1.7588224557752041 4.152837517973067 0.848876392348686 0.2964983579459778 -0.13398647982108294 -6.158555510216438 -8.926097182642618 3.8134762047627655
1.8165013465441378 5.035182811790536 0.8271639205886941 0.1133958827103109 -0.9689722080825001 -14.835648587714594 -22.721394802869145 7.532813646255125
-0.2703792562483341 -0.5056200897100634 0.37888732382141166 0.9923826241256221 -2.0973666951574876 -11.384484263569847 -3.0924312670481977 9.306975229747826
-4.825255508756095 -3.5704535270291133 0.5179548550419468 0.21792625509920838 8.523974067043563 13.09613957243527 12.003201861877468 -16.238225086742666
-15.830382291176127 -4.6514708636098705 0.8601394677579416 0.9352016289543195 11.283660058794798 14.615565687524464 15.999413077775959 4.719384366555408
-2.551958402467529 2.741861730526665 1.517707886898308 0.5600984861916373 2.2323429978120592 7.385049813867008 -6.706993838286339 2.6829172240397314
27.015834141061454 20.196562895134974 2.75827627446673 0.735855850886221 0.6841009806589854 3.601630086889988 12.352353145470978 12.566412039311512
13.240098130307572 4.250536978355666 1.0025326187376717 0.4288255280212117 0.16379984296749894 6.282832553081355 -1.6808122332790238 -11.778539712472938
3.459338777932202 9.043559033925927 7.463848686776882 0.9095621676778384 0.6141230404662112 -0.32236471166954894 -22.291868447591444 -7.444363105855587
10.073489750889227 -4.252410554107553 0.9132715571946767 0.6899176016100343 0.4865580585381727 -2.2008377230172034 -12.557432978727704 -2.5489472684741217
5.397652307884637 -13.522284552437783 -3.6016612480336425 0.4387115563115159 0.38130556023862516 -1.5205351019731888 -9.85000912703075 -9.982690658930693
14.04980713023337 -1.2005783179125578 -3.20307431984463 0.14698021968888209 0.71350870074089 -0.3753415150965347 -7.782080143287012 -9.885070577737425
-0.02428399748397823 6.646748656682791 3.416673275702172 0.39366475050386995 0.4873464719559044 -0.03965943097629343 -1.568120091864678 -1.2226316438020965
3.3472837172839234 9.676454769785531 6.36366610618538 0.6703602569447384 0.05637896365385786 3.499687141838035 17.126123450732987 7.662096729578762
00000000: 83c0 0371 b2ac e43f f560 0449 b798 e73f
00000010: 2c07 c412 bf40 f2bf 4d8d c22e a623 12c0
00000020: 222c fee9 8026 b7bf f6f4 ba6b abc3 f4bf
00000030: 76a5 c359 b3f1 20c0 67eb 7e1e e5ea 05c0
00000040: e79e 11d5 10d4 c03f 7cbe 8158 207a cf3f
00000050: b8e5 524f 0c6f fabf f170 4ef4 13d8 ff3f
00000060: 43cf 2267 a262 1440 5597 40ba 3280 1940
00000070: 87b5 f41e 0d8c e73f 7e8c 0b99 8a17 d83f
00000080: 5c76 0649 4e64 c53f 21f2 790f 0e0c e13f
00000090: 7b85 0238 da00 0a40 a55f eda3 0e8d 1f40
000000a0: 5cb4 f357 e3a5 08c0 b767 3065 7b85 15c0
000000b0: 282e 1799 d9d4 2340 025c 3c2f 0ca1 1140
000000c0: f0d9 9603 07c6 a93f fa46 7225 b5c8 dd3f
000000d0: 335d e808 35c2 1340 e2b7 2597 b497 2240
000000e0: b1ce 5d51 5672 24c0 eb8e 45c9 6ece 31c0
000000f0: 13a0 89fb 4033 1c40 b5da d524 0ff3 1c40
00000100: 16aa f384 d9d3 e83f a0b5 e9c1 dc41 c23f
00000110: 2fa9 886c 824e 1640 b318 9dbd 2b23 2640
00000120: 93a1 ef9d ac36 29c0 c335 b685 bf45 2cc0
00000130: 9b2a 1bbb 2bdb fc3f 46ec 85b1 36e3 2640
00000140: a26e ffe6 7930 e03f e53c 1592 b00d e23f
00000150: bc1d 1f7f 629b 1240 15d9 f734 6545 3040
00000160: 4620 5c62 b354 23c0 e30e 76c5 604f 28c0
00000170: e393 f932 7b20 0340 61db f5bf 8595 1340
00000180: e356 5704 e210 ab3f e48e a1ff f8bc ce3f
00000190: a8c0 a3e2 b4f0 efbf a264 c304 8c9b 2440
000001a0: 7f25 70ad f181 f73f e315 02af 5ef5 f03f
000001b0: b43a dc8b 691d 1d40 08f4 ca6f 9b4d f1bf
000001c0: f5fa 8b43 177e b6bf d196 2a37 9eb6 ea3f
000001d0: 6cdd e597 4ae3 f5bf 147f 97a3 6900 13c0
000001e0: 0d0c baec 210a babf 30e6 3ef8 00cf 0e40
000001f0: f0e6 015f ebc8 03c0 444a d591 d9e6 f0bf
00000200: 4e27 da9b af2f 82bf 70cb e3f7 c523 ee3f
00000210: 762b 17d6 f264 d43f 401f 787e 5f89 debf
00000220: efe4 1e09 ff82 20c0 ac3b f097 ac4e e83f
00000230: 14c2 dfdf 8dd8 0bc0 7aac f18e a2f6 1140
00000240: 4cdb a393 c34e 0940 39f7 46cb 7a23 66bf
00000250: 6c16 c9c8 e229 d43f bd42 cf6d 54a8 03c0
00000260: c7ef 2ee7 2556 32c0 f43c 4a1f f3a2 20c0
00000270: 57c1 19ba 04b5 1d40 edc0 8f55 f4ea 1f40
00000280: 15da a24d f117 0740 006a 1316 8145 b23f
00000290: 6c59 bf9e e979 da3f e36f 3a2e 5ab4 04c0
000002a0: b75f 4a7d 84b3 1bc0 581d 7c49 6771 2340
000002b0: 3be1 f3f6 d56a 3140 ca0b 5841 cc7a f4bf
000002c0: 02ed 9fc2 67b3 0440 2a37 873b 9923 de3f
000002d0: 40ca cc0e d5dc cf3f c268 5e3e 6a3e fb3f
000002e0: 0045 a512 e953 3040 3f0a d3c7 2402 2a40
000002f0: fa3a 2e3c 8eb1 2040 1fe1 1c52 115d 10c0
00000300: 917e d344 58e1 13c0 cf6b 1109 433d eb3f
00000310: 60b2 2945 fa01 a73f bf53 513e 8ebe 0e40
00000320: 929b fc14 448b 1340 f2af af55 40d0 18c0
00000330: 0e34 78c6 99f7 1240 e2ea 5d12 14cb 2cc0
00000340: 81d3 3ceb 30cc 1ec0 c853 75eb 6a2d c53f
00000350: 53af 69c5 1687 ef3f 692f 1db2 4d43 14c0
00000360: 6471 e3b7 e702 23c0 8ce0 fc84 b7a8 0ec0
00000370: 504e 1a83 a307 1740 4c54 1b21 836a 14c0
00000380: 0ea1 3e9d e7b5 1cc0 17cc 8dbe d475 e43f
00000390: 21ae e3e6 328d e43f 333b 0e1a 674e efbf
000003a0: 2b9e a11a eb6c 2cc0 e17b 319d 0870 0f40
000003b0: f127 1c71 f712 2240 0608 30ac dcce f0bf
000003c0: 21a6 aa54 cb88 0cc0 1a6f f895 2975 c3bf
000003d0: bdab 77bf 6e44 e13f ba90 846f 1cc0 c5bf
000003e0: 9b8a 3761 f627 21c0 4ea1 6e90 9338 14c0
000003f0: 3b03 20d6 a29f 1c40 4b99 7847 779a 2640
00000400: 471a 2d12 2dee 0cc0 3cec 13a8 6500 e53f
00000410: 100a 82f8 05e7 f53f 6c23 2de7 ecb9 e93f
00000420: 5b2b c194 261c da3f e11d c7fd 852f 2040
00000430: 1f5c 85ac 1bbc 11c0 6a32 4837 9d15 1fc0
00000440: 27d8 c1d8 6a6e 0b40 72e9 de5f 18a1 dfbf
00000450: 0bf2 5342 906d 883f f078 8804 0484 ab3f
00000460: 3fe5 5ac6 2c0e e93f 49e7 6f11 e542 1340
00000470: fb87 20ff 00b9 0c40 b106 20f4 5dc3 1f40
00000480: 0666 f003 2324 fcbf 3e2f 3570 819c 1040
00000490: 827d efd2 fe29 eb3f f685 ac3f d4f9 d23f
000004a0: 0d07 780e 7826 c1bf b8eb 2b60 5ca2 18c0
000004b0: 4ebc f068 29da 21c0 023e fccf ff81 0e40
000004c0: a7c0 48b7 6310 fd3f 3216 88f6 0624 1440
000004d0: b381 6b78 2078 ea3f 0ae9 bd37 8307 bd3f
000004e0: d44f 0e01 d201 efbf 945d b621 daab 2dc0
000004f0: cdd3 6d54 adb8 36c0 f41c 86e6 9921 1e40
00000500: 159e c6cb e44d d1bf 7d2b b02e 0a2e e0bf
00000510: a8a4 2b9e b03f d83f 659f 7734 99c1 ef3f
00000520: 3b5e 9b30 68c7 00c0 e1b7 131f dbc4 26c0
00000530: 7fcc a89a 4cbd 08c0 e3e5 78db 2b9d 2240
00000540: 1ace b3c7 0f4d 13c0 bad2 53f0 4990 0cc0
00000550: e6b4 660f 1693 e03f 14a1 4bed 01e5 cb3f
00000560: f5ce 3354 460c 2140 fceb be34 3931 2a40
00000570: 9e19 a8ac a301 2840 82a5 bc51 fc3c 30c0
00000580: db8e 1fde 27a9 2fc0 4d01 962d 1b9b 12c0
00000590: 559d 8034 4386 eb3f 94ca 70f7 2bed ed3f
000005a0: 0269 27e4 3b91 2640 27ea 006d 2b3b 2d40
000005b0: 227c 2812 b3ff 2f40 c66f 9e4b a6e0 1240
000005c0: b5cd ba2a 696a 04c0 c020 f633 55ef 0540
000005d0: 83c0 b110 8848 f83f 196e 17a9 53ec e13f
000005e0: 8b75 48a5 d6db 0140 0a8f 977f 4a8a 1d40
000005f0: 42a7 5731 f6d3 1ac0 8a01 394e 9d76 0540
00000600: ea04 ceb4 0d04 3b40 3836 26f2 5132 3440
00000610: af56 c126 f310 0640 e00c c491 218c e73f
00000620: 9bf0 62bd 27e4 e53f 6bdb 5b6f 23d0 0c40
00000630: 94e1 a8a1 67b4 2840 a6ce 41c2 0022 2940
00000640: e800 6324 ee7a 2a40 ade7 01c4 8c00 1140
00000650: b26c aaa4 5f0a f03f 55a0 a2a0 e071 db3f
00000660: f052 51ac 64f7 c43f 17ea 56db 9e21 1940
00000670: ef66 4a5e 9be4 fabf c26a d7c1 9c8e 27c0
00000680: fe06 28cf b9ac 0b40 7e50 a45e 4d16 2240
00000690: 3dff 6f26 fbda 1d40 ab5d 7b1e 221b ed3f
000006a0: 02b8 d05c e5a6 e33f e854 8099 9fa1 d4bf
000006b0: b923 fde3 b74a 36c0 80cb 3c1f 07c7 1dc0
000006c0: 2252 d972 a025 2440 8d3a 8ce9 7702 11c0
000006d0: 8594 d045 8539 ed3f 0232 fb13 ce13 e63f
000006e0: 8ab5 4169 c423 df3f c44b e1ce 509b 01c0
000006f0: d8b1 fada 671d 29c0 5d99 2a77 3e64 04c0
00000700: 7b2c a62a 3297 1540 41da 7fe1 680b 2bc0
00000710: ae99 bcc5 33d0 0cc0 e60d afa2 d913 dc3f
00000720: aa80 c06f 4f67 d83f 6451 769d 1c54 f8bf
00000730: 13cc 7365 34b3 23c0 5062 e43a 23f7 23c0
00000740: 7deb f651 8019 2c40 bc89 3b9c 9135 f3bf
00000750: fc1e d36d e59f 09c0 987f 5c72 3fd0 c23f
00000760: 8efe e232 10d5 e63f dcec 0a6b 9805 d8bf
00000770: 2913 f99d d920 1fc0 7111 84f8 27c5 23c0
00000780: 9b11 0a7c e7dd 98bf f3bc a447 4596 1a40
00000790: 6d10 62cc 5855 0b40 c022 40a3 cd31 d93f
000007a0: 24c8 b741 af30 df3f 20d4 0aae 3d4e a4bf
000007b0: 2026 ec17 0517 f9bf a3f4 d232 e68f f3bf
000007c0: 9357 81af 3cc7 0a40 75e7 9247 585a 2340
000007d0: 63eb 42e3 6474 1940 b4b4 835a 9773 e53f
000007e0: 20c1 261a b4dd ac3f 9968 e3f8 5bff 0b40
000007f0: 2728 60a0 4920 3140 3e51 61af fca5 1e40
