Digits/logistic_regression/training/p50percent_training_data/weights19001.npy (npy, 5328 bytes, 1 tensors)

array f8 [10, 65]
0	0x3ff0c948cfb720d4	1.0491417039757396
1	0x3fec8442b62e8968	0.8911450918424579
2	0x3fb6fb21f05a179a	0.08976947896925794
3	0xc00efd98ab160e20	-3.8738263479333597
4	0x401dc48a7b8db11a	7.4419345193130315
5	0x400d82b846f0a45f	3.6888280431926854
6	0xc00f96158591cfcf	-3.948283236992189
7	0xc020f2279d0b3388	-8.472958476655336
8	0xbfdc80f5a537d2ec	-0.4453710664231909
9	0x3feca069fba6ea1c	0.8945817866400065
10	0xc005157fc7b3a053	-2.6354976274197184
11	0xc002c82aab43fa82	-2.3477376346702963
12	0x401cfa2583b44d29	7.244283731345868
13	0x401d792426978bee	7.368301966666861
14	0x4020f81367a5476d	8.484523047376308
15	0x3ff01df94849e900	1.007317812326221
16	0xbfc8561abf20f756	-0.19012770016154928
17	0x3fd767082fce45b3	0.36566357296495794
18	0x40045d296c4d4993	2.545489164456009
19	0x4029686ff326d158	12.70397910927629
20	0xbfd73891cf46a541	-0.3628277324847496
21	0xc029ba8b3f0bc16d	-12.864343614754683
22	0x4024a98462a1a597	10.331088144523887
23	0x402ad78acabb1683	13.420980773294337
24	0x3fa58ceea47d86f5	0.0420908523362992
25	0x3fd4622ba12f4f8e	0.3184918474264514
26	0x401c705b74996f29	7.109723874916917
27	0x402f68ddcf24aaa5	15.704817269540692
28	0xc031dd59f31faf27	-17.864653773532293
29	0xc044949d65c57e82	-41.16105339186926
30	0xbff4bdef2e0fd2ac	-1.2963706778802289
31	0x40363377d11575ea	22.20104700826588
32	0x3fef0a158dc9b12e	0.9699809808057915
33	0x3fdcb5fb5e62210a	0.44860729424591794
34	0x402b3ab19d923109	13.614636348815582
35	0x4027e1ebd034b7c4	11.941252237735064
36	0xc039629c74c649dd	-25.38519983140019
37	0xc03d9081c5bac565	-29.564480169390112
38	0xbff215626363517a	-1.1302207834570184
39	0x402dca486df6e1d6	14.895083843600258
40	0x3fcf6f1215fe5af8	0.24557710718064363
41	0x3fc905d62eeeda16	0.19549062053347716
42	0x401431927d5833c5	5.048410376079976
43	0x4031d5ddefa571b5	17.835417726413386
44	0xc00ed6a31767c186	-3.8548032597101978
45	0xc02b3f6c953ab52d	-13.623875296989889
46	0x4022559a4b5a0063	9.167192797409546
47	0x401dcec5726c3b21	7.451925075393576
48	0x3fccb9b5691aacff	0.2244173777774918
49	0x3fd005df2588c195	0.250358378080841
50	0xc010ad214b5a9548	-4.169072320369487
51	0x40272b83e775888c	11.584990723702752
52	0x400627890834f4ba	2.7693043366585615
53	0x4022f3f8149e7a96	9.476502079339564
54	0x402ab87a0ddadf98	13.360306199043222
55	0xbff4541d9e73ff83	-1.2705360593390373
56	0x3fe31f001fcfcc40	0.597534238941428
57	0x3fec2280e70d10e1	0.8792118561473466
58	0x3f7ce323e41b887c	0.007052555274386415
59	0xbfddedbbb2730cf3	-0.46763508249951186
60	0x401150519468d955	4.328436201953385
61	0x4007015a0a28e1a0	2.875660018322563
62	0xc01d95d84955e168	-7.396332879893045
63	0xc0011f6e46aab26c	-2.1403470536081866
64	0x3fe96612bcf89e8f	0.7937101069300797
65	0xc00c36b3b3cc1c1e	-3.5267099424995783
66	0x3fe4715ccf31d119	0.6388382002610654
67	0xbffc005ba1631fe2	-1.750087385576983
68	0xc0187e0d508e3087	-6.12309766643387
69	0x400f2d2fb4a0c2a4	3.8970636474189906
70	0xc0459807099e1c8e	-43.187714769556905
71	0x403621143e5c9f70	22.129215142834653
72	0x4017d59d05d70538	5.958606806992343
73	0xbfe4bb56cb2c438d	-0.6478685348721328
74	0x3fe65d5b97619f8e	0.6988962132136167
75	0xc029c169d5ed6d31	-12.877760586960536
76	0xc0410f649d43c1eb	-34.120258005223
77	0xc042443cf888c5c1	-36.533110682280956
78	0x4014ca40fdf3a92a	5.197513549801707
79	0xbff87f7fef65737e	-1.5311278678338733
80	0xc0341c19c2c493a9	-20.10976807879675
81	0x3fd8bc198dabf3b0	0.38648070178151794
82	0x3fe220601fa843a0	0.56645208533347
83	0x40239cbd3ee4bd07	9.806131329939047
84	0xc030edb5762d4df8	-16.928550134716687
85	0x40452d390f28155b	42.353303808757765
86	0x4035d0d75ae6bd02	21.815786057789417
87	0xc03046ed2a014d4c	-16.277056336706025
88	0xc02f2db1e581eee6	-15.589247867690073
89	0x3fdbd93cec994c1a	0.43513415437081593
90	0x3f945e04e87fe814	0.01988990468087344
91	0x4007b93393f5ab94	2.965430408415566
92	0x40325aea48e1e792	18.355137400772556
93	0x404305b18a8bf056	38.04448062737417
94	0x4039be7bc304637a	25.744075954982215
95	0xbffd8bd1ad8ffe07	-1.8466355113777142
96	0xc02817d72527173d	-12.046563302060912
97	0x3feb9e7ce023dab5	0.8630966546760052
98	0x3fc0547c31a4f4cc	0.12757828163186102
99	0x4011319584398804	4.298421922694619
100	0x402eb336d577e309	15.350027724156023
101	0xc0384d265eb843ea	-24.30136672972359
102	0x403e3e660e92d9c0	30.24374476514072
103	0x40256452502ca2e3	10.6959404997337
104	0xc034b0a97dcd2a00	-20.69008623370064
105	0x3fe0009a928ae5ef	0.5000737058791723
106	0x3feb545295ba80b6	0.8540432857880862
107	0xc0343e92d4400b07	-20.244427934299008
108	0x3fc62cc3724fb318	0.17324107247932186
109	0x40332ab932e569dd	19.1668884096233
110	0x402548d87b1d0b2f	10.642276618285534
111	0xc03f9c54a2acce73	-31.61066643446834
112	0xc036caad1b823625	-22.79170391015045
113	0x3fdaea4789f03fd1	0.42054928274683073
114	0xbfa38c546a8eca4f	-0.038180006034413176
115	0xc007c8ac907b553d	-2.9729853904379113
116	0xc01ab8571ed7e9f8	-6.680019838264791
117	0x4032870a306bc6c9	18.527499224007247
118	0x4035b8938d6e8b8c	21.72100147198539
119	0x400f4caafd1b68da	3.912435510062193
120	0xbfe36137b9dad41b	-0.6056173925377409
121	0x40241b2b7d7e0de2	10.053066178929786
122	0x3fec8ee954fe2f40	0.89244524574449
123	0xc00ff3bcaea817c2	-3.994012226586137
124	0xc021a9e2b84640df	-8.831807859969954
125	0x400e8560ccf4b6fa	3.8151260387593284
126	0xc0224b793e452a81	-9.147409387534255
127	0x402bf5721998f27f	13.979386138840026
128	0x40038573403d6da1	2.4401612299677287
129	0x40311b0c6201faa9	17.105657697184743
130	0x3fe4190d485be02d	0.628058091474491
131	0x3fd18eaec410c876	0.2743336596205447
132	0x400cae33ff18b44d	3.5850601128973154
133	0xbfe294a35c62ee6a	-0.5806443027899608
134	0x40063f5138869d46	2.7809166351395644
135	0x4019ac4ad7d05d43	6.418254253475712
136	0x4012ef3c710cd83b	4.7336290039148095
137	0x3ff841ae7a3d9029	1.5160355353373325
138	0xbfb5860d6ee4060d	-0.08407672841351417
139	0x3fe246a7f812e113	0.5711250157537812
140	0x4038747597aafdaf	24.454919318433607
141	0x402f42c740a4a5ec	15.630426426027917
142	0xc018c92eef6d9b87	-6.196468106331742
143	0x402e8c23f787ca91	15.273711905790408
144	0xc01092cad22e5943	-4.143351825789355
145	0x401f63c35344775e	7.847424794248438
146	0xbfdc2967214fb0a4	-0.44002702954345296
147	0x3fe44b15ef0134a7	0.6341657321987854
148	0xc01a6fef2f6fccfc	-6.609310857008719
149	0x3fe2f2a1182b5707	0.5921178314262939
150	0xc0355d48542acb4d	-21.36438489956645
151	0x4030da5293c4dcc8	16.852822528421513
152	0xc02332620cad3a80	-9.598404308458385
153	0x402b18f3f0ede682	13.54873612312372
154	0x3fce6bc7671d5ca4	0.23766415152451714
155	0x3fe30db77dc42698	0.5954244095202794
156	0xc02ee4c7d48d09ca	-15.446837084023077
157	0xc044c38a102518d8	-41.52765085040454
158	0xc0401c84d6fbe703	-32.222803948401655
159	0xc01b0fc333497c1d	-6.765393067703397
160	0xbfee5d5d271e88f8	-0.9488969577835453
161	0x40120346a2c16be6	4.503199141555319
162	0x3fe02e5be277ca9d	0.5056590483857978
163	0x3fc6a36b0732ffcc	0.17686212398075296
164	0xc020dac0cd212cdd	-8.427252207088197
165	0xc03e0869d7b03075	-30.032865028872454
166	0xc030be5f939d5b3b	-16.743645883481104
167	0x4023dcae49263965	9.931017194667854
168	0xc03b4fd3e3a7a559	-27.311826923779652
169	0xc02fa2e636b2f1a7	-15.818162640899414
170	0x3fe07c3743b61e8d	0.5151630709160188
171	0x3fe4bb97955c93e4	0.6478994290561073
172	0x401ff48256f62dc3	7.9887784564738835
173	0x402fad0a9062bb72	15.837971221973678
174	0x40439f1cfed51adf	39.24307237058178
175	0xc03d873fa4023d82	-29.528314829394283
176	0xc0404eec2ba7f84f	-32.616582352654056
177	0xc0215ba593bbc599	-8.67899762789857
178	0x3fe100617c44ba14	0.531296484672398
179	0x3ff255040fb7399f	1.145755826367896
180	0x4025c1dd42b8ddaa	10.878641209665904
181	0x4012c98dfdaea173	4.6968307149730775
182	0x4043701054cb4e25	38.87549838950171
183	0x402fa1ff8c4fa61e	15.816402802202955
184	0x403d2b943b1a564b	29.17023057358737
185	0x40271cdb56a41285	11.556360919502604
186	0x4017ac2bea8707c4	5.918136276713941
187	0x3feb51c0e2b90e0f	0.8537296703511305
188	0x4016187ee74630ba	5.52392159810932
189	0x4027391089e897b3	11.611454305308007
190	0x401b0369ed013764	6.753333762358896
191	0x400a8a70ffb20cd3	3.317598340626867
192	0x4037c1f25b682166	23.757604325220562
193	0x404034638f32ecfd	32.409288310876924
194	0x401bff59f41da30e	6.999366583165068
195	0x3ff73e73fa3bcf50	1.4527473234893087
196	0x3fe3e423e597b1ce	0.6215991481999994
197	0x401f406d3207afff	7.812916547507483
198	0x3fe5c40b5066223e	0.6801811762134731
199	0x4030ca2b90dbebde	16.789727262202966
200	0x4043489c0762c02e	38.567261622636906
201	0x4005c1c79c6d2b50	2.7196190090957444
202	0x3ff9cae9cd27ba4c	1.6120393766283483
203	0x3fd348e863607acc	0.30132493691227746
204	0x3fdfac84142ec6a7	0.49490453692406294
205	0xc0242ea65d7a7016	-10.09111301536181
206	0x402aff4af264e15a	13.49861867410134
207	0xbff024d42649a90b	-1.0089913840880083
208	0x402545f7c1dc743d	10.63665586296167
209	0x40132f8524e1bd95	4.796406341817961
210	0x402263416a88452a	9.19385846055464
211	0x3fe95541e863aa4c	0.7916574038366178
212	0x3fe7e7649b21e30e	0.7469962148598783
213	0x4014696e29fd4166	5.102959304888236
214	0xc0360e9f5248c099	-22.057118551980782
215	0xc041db6b93d3160f	-35.714220502919595
216	0x40127e43840ec23a	4.623304427529144
217	0xc03011d4a0e1c734	-16.069650702592483
218	0xbfe8fa64abb433ec	-0.7805655816642889
219	0x3fe5970f826b9f87	0.674690012671804
220	0x3fdfe9e6e4cbcf04	0.49865124076244194
221	0xc018bea30439657a	-6.186168733599851
222	0xc04796a494289a0e	-47.17689754469403
223	0xc03b9ac0cabc9c6c	-27.60450427155267
224	0x40347787bc430d1f	20.466914907808242
225	0xc03fa71c22f70b4c	-31.652773080171116
226	0xc0321dbc80aae793	-18.116157571530106
227	0x3fd5bf7927ad949f	0.33981160044488407
228	0x3fe8675df321477a	0.7626180409081222
229	0xc0109f68ca70439c	-4.155673182584817
230	0xc03e58dc242d7121	-30.34710908994123
231	0xc014a899ed4249c5	-5.164649684115322
232	0x4041fcbdff3dbaaa	35.97454824937934
233	0xc01996cb3b440282	-6.3972596416721235
234	0x401c01d2feade64e	7.001781443943015
235	0x3fc8bcbe4aa63a48	0.19325998921381626
236	0x3fe5726ae120f14b	0.6702169796986167
237	0xbfeb6924fa2bd7b3	-0.8565850149304793
238	0xc03a6913426e7866	-26.410450126619615
239	0xc04ca77bf792ee9e	-57.308470675224484
240	0xbfb152f1729bb709	-0.0676718621068312
241	0x403df293376345fe	29.94755884336154
242	0x40342b55c1555112	20.169277270631092
243	0x3f6010dc1aab5bcc	0.0019611643705092826
244	0x3fed1674ff9a1ab4	0.908991336081121
245	0x3ff2eccd6d6fa7f1	1.1828130984163148
246	0x40315ebab24e33ae	17.370036262600188
247	0xbfef58e718758b42	-0.9796023824422735
248	0x4003f7ba07904d45	2.4959602919495034
249	0x4021051e83ad76ac	8.509998431133987
250	0x40224e54705707c4	9.152987967132397
251	0xc012db8fd8c9e863	-4.714415919612381
252	0x3fe769d6075cc739	0.7316694396779219
253	0x40197b17e4b40fd6	6.370208333482841
254	0x403b9c74ef5e3e0e	27.61115928698387
255	0x3fea7ce9745101ff	0.8277480384641079
