Digits/logistic_regression/training/p75percent_training_data/weights19001.npy (npy, 5328 bytes, 1 tensors)

array f8 [10, 65]
0	0x3fe729c0977c9a2f	0.7238467177128934
1	0x3fa9f38c36428a00	0.05068624651291387
2	0xbfe47e3f807d2258	-0.6404111394450167
3	0xc0026ac889a014bc	-2.3021403076150744
4	0x40165e47d222d40f	5.592070849776987
5	0x4012256c2cc66c5e	4.536545467005537
6	0xc0167ce28f4270e4	-5.621958006315456
7	0xc02aabfba051ff68	-13.335904130944712
8	0xbfe4035296f13b24	-0.6254055927364317
9	0x3fc836b553a26e5e	0.18916956504550603
10	0xc003a4d2bc8fb602	-2.4554800731045825
11	0x400e3701d63f0571	3.7768589723570405
12	0x40274db70a888f31	11.651787118120042
13	0x401732f26237326f	5.799752745264967
14	0x402e7884fc03b5c7	15.235389590695275
15	0xc01282c91109378a	-4.627720133006628
16	0xbfdd8eb9d0168ee9	-0.4618362934217957
17	0x3fe8e54dd4153a38	0.7779912130589031
18	0x400f8cbed5c4d27a	3.9437233639421807
19	0x40309aa39b3991a6	16.60405893474094
20	0x3ff4c88da7651c99	1.2989632166734622
21	0xc0342a364ee106e7	-20.16489117616484
22	0x402c77584a6e205a	14.233095479911004
23	0x4029206e1042188f	12.563339717930175
24	0x3fb5e3e7936491c1	0.08550879810770252
25	0x3fe8d8e40b6cec8c	0.7764759276536934
26	0x402abaf9de1a2c23	13.36518758840072
27	0x4030b8d6e3894fcd	16.722028943084116
28	0xc030a77f502d037b	-16.654286395063064
29	0xc047254426ec5cfe	-46.29114233533072
30	0xc01e92cffca3095e	-7.643371531916584
31	0x403a0310f75396aa	26.01197763243423
32	0x3fea0a5c09a3dae4	0.8137645900995634
33	0x3fe8184539d174df	0.7529626969586863
34	0x4039cf509f9bf4ba	25.809823966574847
35	0x402d792e23a95f2b	14.736680139947188
36	0xc03dffd0e21c4842	-29.999281055359695
37	0xc0428c8214eb2a98	-37.09771977884992
38	0x3fe8a6499538440e	0.7702987589310639
39	0x40325f1f950ce762	18.371575656557418
40	0x3fd1f3c956aff07a	0.2805045458369545
41	0x3fdd109f9a3116fa	0.4541396146563411
42	0x400ff34eb220dbbd	3.9938024441030096
43	0x40339934bf67c325	19.59846111567744
44	0xc01f7b0debd116a1	-7.87017029250788
45	0xc02862df37f864f7	-12.193109273025113
46	0x401fc2b7b542c4e0	7.940153915596255
47	0x40251c2687badf72	10.55498146206057
48	0xbf5100e95ecb568d	-0.0010378149992695013
49	0x3fe39a045526b6c0	0.612550894080151
50	0xc01aa1c691066953	-6.657984033600161
51	0x4026a755063c1de1	11.326820559347597
52	0x4000a80ef632d1f6	2.0820597872027475
53	0x40218c81dab6ed07	8.774428210096188
54	0x40189d16e1f858ae	6.153407603056776
55	0x4010973d7ccbd3eb	4.147695493641531
56	0x3fda3ff192d876cb	0.41015281048190094
57	0x3fee87866fd86c0c	0.9540435966949885
58	0xbff463e1e1e228d2	-1.2743853400775618
59	0xc013d958c09a0fe3	-4.962252625849916
60	0x402a817133fee109	13.252816796172299
61	0xc01be8d66856ca6b	-6.977380399987491
62	0xc00fe8489f4dc6d7	-3.988419766007478
63	0xbfffb6bd8e8885d7	-1.9821143691736915
64	0xbffe2f43be68a30c	-1.8865392148820233
65	0xbfe6ec305a03d900	-0.7163316495996526
66	0x3fe8e4fcbec50d91	0.7779525495501948
67	0xbff5e37c8f9421e4	-1.368038712362357
68	0x3fdfdfbefd025826	0.4980313750069193
69	0x40314fa11d87d4ca	17.31105217519943
70	0xc04a4cb27d7ac9c7	-52.59919708724515
71	0x403b7d648c73b56a	27.489815500497038
72	0xc022135861abb631	-9.037783672533893
73	0xbfe4039e9944726e	-0.6254418366912213
74	0xbfe4ea688a1c505e	-0.6536143014404947
75	0xc02b8e836e7715dd	-13.778346492802422
76	0xc042ebad04edd08a	-37.84121762859384
77	0xc0422d6d64b4a67e	-36.35490092106646
78	0x401e46e4109f7efb	7.569229373679032
79	0xc0143329afce37b5	-5.049963709794544
80	0xc040e20e8484c1b8	-33.76606804353963
81	0x3fda32951cfbfff0	0.409337309174588
82	0x400b925d47bb276a	3.446466980360971
83	0x403492c2f1352894	20.573287082174446
84	0xc02a585209ad9b76	-13.17250089878301
85	0x404cb104a57fdea3	57.38295429938923
86	0x4037f126094824df	23.94198663722352
87	0xc02eab12a86b3b42	-15.33412672337511
88	0xc02e6c2cf54aecb4	-15.211280503650734
89	0x3fc3713f7a0837aa	0.15189355333899118
90	0x3ff91bad64dbaa3b	1.569257158257314
91	0x403660a286d9d38a	22.37747996156717
92	0x40288293af6f523e	12.255032999362012
93	0x4043427a904a5137	38.51936534527561
94	0x40376365fe72dad3	23.3882750540168
95	0x40218bfa85e455ee	8.77339571392346
96	0xc02d7eee48378221	-14.747911698127668
97	0x3feaeb4d11f8ae63	0.841223273373043
98	0x3fc511251c8563ec	0.16458572285299
99	0xc017fa485fe07131	-5.994416711877691
100	0x40315c346f062f21	17.360175074586667
101	0xc036745eb0547305	-22.45456983625174
102	0x4031692e3e40a323	17.410861864834384
103	0x4033b55b5f7c2976	19.70842549115465
104	0xc03e7c02cd0d59b7	-30.484417739638697
105	0x3fe0e55a5d8d49e7	0.5279971911607476
106	0x3fead6860b9b3297	0.8386869646725071
107	0xc02e219adce55202	-15.06563463496514
108	0x40310681beccdda9	17.02541725637062
109	0x402a14f7a1e57204	13.04095178533408
110	0x401683a232d39cc6	5.6285484258325535
111	0xc0417e35ffca45ea	-34.98602292420021
112	0xc043701f00ee16ca	-38.875946155790714
113	0xbff87328c73994d3	-1.5281150610183445
114	0x3fc24e5c84e3700a	0.14301640022938528
115	0xc01a5027224a1e98	-6.578274284147163
116	0xc03585e1a1736b74	-21.522974100760123
117	0x4030d447c6dc5343	16.82922022704157
118	0x403d96422ad64a7b	29.586947133366703
119	0xc011d712f46aa12e	-4.460033244140773
120	0xc03453246e77b28d	-20.324774650786413
121	0x4039cbaa4c4f4deb	25.795567292558115
122	0x3fd9ec17e7ca0c01	0.4050349963728764
123	0xc0105075c1a2c13f	-4.078574204977769
124	0xc021dfbaa14bc58f	-8.936970749377705
125	0xc015e500c100a16d	-5.473635688460814
126	0x401f0fbb51d2c2c0	7.765363005150618
127	0x402f4cb1b4652bdf	15.649793279027959
128	0x4014c712ec361489	5.194408121872706
129	0x40387d61439fc3c9	24.4897653832484
130	0x3fe5850afecd9ed6	0.6724905945420356
131	0x3fdb568e2f9cd252	0.42715792321840695
132	0x4005026b1a1fe4cf	2.6261808434470377
133	0x40019f6e1f88191f	2.2028467620285848
134	0x401ded15d7afecca	7.481528635132415
135	0x4022be58d269cc46	9.371771407522953
136	0xbfc7f63ecb5df70b	-0.18720230989486483
137	0xbffba8cc2b9b68bb	-1.7287103370095298
138	0xbfbd2ddb43f73fae	-0.11398096474954286
139	0xbfe3eef2da6c8e07	-0.6229185358137678
140	0x403734ad496d4454	23.205769147087565
141	0x402d09e0470ff46e	14.519289227197273
142	0xc02921a53e9b9bfa	-12.565713840956949
143	0x403a554279250cd2	26.333045550866537
144	0x3ff788442a3ca67a	1.4707681321982862
145	0x401d0d1889ac0e60	7.262788916708445
146	0xbfc27da1f54f838b	-0.1444590041928929
147	0x3fc09b11688a987c	0.12973229984817525
148	0xc00cd803d57fc070	-3.6054760627376297
149	0xc0070a954709aaf1	-2.8801675367188797
150	0xc0361a33d46246ed	-22.10235335730879
151	0x403234ce787fdcb6	18.206275492874475
152	0xc0167a644df3a5ca	-5.619523256298132
153	0x40301db487acb12b	16.1160359188663
154	0x3fee637caeb632ec	0.9496444141710447
155	0x3fdf9a7145cc2d31	0.493801420365986
156	0xc03498eb6ec26df9	-20.597342417209777
157	0xc04b88bae8e6631e	-55.068204033368815
158	0xc040f618a5bb4ffe	-33.92262717863194
159	0xc029a0db651da39c	-12.81417385088735
160	0x3fc5a5be9eb665ef	0.1691206240619034
161	0x3fe0e2ba61dcb064	0.5276767646187293
162	0x3fc3ed2a0f30480c	0.15567517987852886
163	0x3fed695669a0292a	0.9191085875511693
164	0xc03043ddeae9c990	-16.26510494430255
165	0xc04169ca48e1d52f	-34.826485739011666
166	0xc021285e1c07ae21	-8.578842998445056
167	0x400809476ac6f056	3.0045307485543544
168	0xc03986e4d41eb7f4	-25.526929147243166
169	0xc034e3e9048d36d1	-20.890274319149118
170	0x3fd1cc87b1c80858	0.27810852395498875
171	0x3fe1e6e63074173a	0.5594359346730251
172	0x4008d9a18e90fa7f	3.1062651765817573
173	0x401fe4eb7323e909	7.973554419581213
174	0x4042e489294d5f7a	37.78543583181359
175	0xc042ea3bc7805f86	-37.8299493195364
176	0xc043dacb8931d565	-39.70933642323761
177	0xc02f2e60a4142ae3	-15.59058106180368
178	0x3f70038cf7fdbe02	0.00390963617233764
179	0x3fe4c34e54f2fbde	0.6488410624659726
180	0x40230685554df488	9.512736001745239
181	0x400ea63613d5f515	3.8311578321141817
182	0x4044a77d2d783c6a	41.3085076176729
183	0x40348bb1c04d6f51	20.54568101778506
184	0x403e095ea5dbed71	30.036600462144126
185	0x4023a396c9fb726e	9.81950980371877
186	0x3fb1dc89d1597384	0.06977139817304417
187	0x3fc0dd883e236deb	0.13176062616444936
188	0x4016169babe79438	5.522078214654407
189	0x403164924d5a7102	17.39285739381831
190	0x402030a7600a6dae	8.095026971123698
191	0x4022f69f337c4181	9.481683358114198
192	0x403d991ecef5f2d1	29.598126349493047
193	0x40443276af9027a6	40.39424700297177
194	0x402c2de0be217ef5	14.089605275715693
195	0x3ff7c1d8cec124dd	1.4848259044977603
196	0x3feac77e184be260	0.836852118925048
197	0x40204c8dae8704c5	8.149518445951239
198	0xc028872e7b5363a4	-12.264026502541874
199	0x403260e0eec4c18c	18.378432200466293
200	0x404208874c90b388	36.06662900033467
201	0x401351a7f94e486a	4.829742331889159
202	0x40321ab9adbbcba7	18.10439573130466
203	0x3fd82bcf05fb5d6f	0.37767386993569735
204	0x3fe1efbf421ac82a	0.5605160037141605
205	0xbfffbe66f3f88785	-1.9839849023923943
206	0x4031b94f485d4727	17.723866007588324
207	0xc01603d10a2b3f77	-5.503727110757487
208	0x400649a8b64e1e39	2.785966324099516
209	0x401b666c79ba53ff	6.850023176190915
210	0x4030f53747d95b5d	16.95787476593556
211	0xbfd04f36279eb127	-0.25483468884592003
212	0x3fe12915ac195065	0.5362652169519718
213	0x401b15b5c589c38c	6.771201216252745
214	0xc0392407712761da	-25.140738556017688
215	0xc0437255c2273d9f	-38.893242139015676
216	0x402f539c752674fc	15.663303051895575
217	0xc01b92f24fea73ca	-6.893502472576936
218	0x401ac007052971f4	6.687526779799089
219	0x3fe8f07f5dc87aee	0.7793576080037761
220	0x3fe2e3e233c03807	0.5903178225287328
221	0xc02ba5ae729b50b0	-13.823596555194257
222	0xc04be67a2bdd7afb	-55.800603373665545
223	0xc0330882060635a4	-19.033234001651763
224	0x4039ea97ade967a2	25.916376943095777
225	0xc042b7a3b112bb43	-37.434682974001156
226	0xc0347557eb286835	-20.45837278114796
227	0x3fdffe89ed821f48	0.4999108142296689
228	0x3fd8b601b97d92b2	0.3861088096075874
229	0xc01fbf01b1af6d9f	-7.9365298999140625
230	0xc04012c9416bac93	-32.146766831946614
231	0x40180dcac52ba503	6.01346881941686
232	0x4041ba2ee95c54f6	35.4545566273536
233	0xc0181dae3904da3d	-6.028984919472859
234	0x4016593faa689377	5.587156927712264
235	0x3fe18ec911b1de19	0.5486798616029233
236	0x3fd16a49564cb9ec	0.27211221149164433
237	0xc00e7e1c08e6a26a	-3.811576909578709
238	0xc0407c611b1291c8	-32.97171343237602
239	0xc04d196a8768ecbb	-58.19856350539472
240	0x400287eb8e5d2eb3	2.316367256373121
241	0x403cfb200fdb1117	28.980957976325126
242	0x403c35c7161f87b3	28.21006906766679
243	0x3fed70cf2481d902	0.9200206482917397
244	0x3fd6827b806bca7b	0.3517140153991602
245	0x3fec090281204de5	0.8760998270030852
246	0x402f09322468bf50	15.51796067980436
247	0xc028ae461cd04748	-12.340378666329016
248	0x40028bab7f9c9c93	2.3181982011479447
249	0x4015193dbaf8f2f7	5.274649545139929
250	0x4036026940a5259b	22.009418526000086
251	0xc013a5d4ab510b96	-4.9119440811363315
252	0x3fe94e564b4d327d	0.7908126326306754
253	0x4024a0524386540d	10.313127622745037
254	0x403e0251ce960348	30.009060775398467
255	0x40198ef9498316bb	6.38962283003428
