Digits/logistic_regression/training/p25percent_training_data/weights19001.npy (npy, 5328 bytes, 1 tensors)

array f8 [10, 65]
000000 28 3d 9c f1 b7 71 eb 3f ff bc 3d bb 1e fc ea 3f
       0.8576316565467197 0.843276372628594
000010 d4 52 0f ac ec d0 e8 bf d5 2f 14 10 83 1b f5 bf
       -0.7755034790557951 -1.3192167881088512
000020 b0 19 6f 79 f2 9a 16 40 48 8d 5d c5 94 fe f3 bf
       5.651315591245677 -1.249653597792376
000030 74 dd dd a0 d2 9e 18 c0 f2 d5 0f c8 02 b3 1d c0
       -6.155100358525818 -7.4248152980485305
000040 24 9e a5 3f 18 34 c1 bf 39 32 19 96 ef 3b d5 3f
       -0.13440230472336723 0.33178319604920464
000050 65 9b 65 a6 e4 65 05 c0 7c 0c 22 65 c3 61 ff 3f
       -2.6747525214918135 1.9613679838664941
000060 a6 eb c2 a5 f0 fc 17 40 49 48 da b2 c6 80 18 40
       5.9970117473812135 6.125757975170992
000070 b7 48 de 81 84 54 03 40 cc a5 3d 43 a7 35 e6 bf
       2.4162683626137453 -0.6940494836136906
000080 eb 22 45 d6 40 ae dc bf 44 02 5d 62 5b fa da 3f
       -0.4481355755311102 0.4215305767611748
000090 64 a5 97 ae e2 26 10 40 74 80 29 ad a1 7c 26 40
       4.037974098211041 11.243420993152746
0000a0 f8 6c c2 b9 29 eb c1 3f 52 96 67 a3 3b 29 21 c0
       0.13998910494124295 -8.580533129115029
0000b0 7c 2a 23 c3 fd 2e 1d 40 bd a0 7f 0b d9 2b 19 40
       7.295889901181564 6.292820148148334
0000c0 91 71 9a ff 3d 7e e7 3f d2 3d e1 e9 84 34 d2 3f
       0.7341604225398887 0.28445551719502504
0000d0 c2 b6 44 bc 4f 26 20 40 d0 63 a3 a7 0d fa 2e 40
       8.074827083003928 15.488385428137832
0000e0 fe a4 fd b8 6f f0 21 c0 28 17 ed 71 bf 35 3c c0
       -8.969602375948394 -28.20995246923772
0000f0 71 a7 30 8c 26 e6 d7 bf e2 49 73 70 89 38 2c 40
       -0.3734222764056688 14.110423578332249
000100 0c 7d 1b 2f b8 e8 c2 3f 75 8c 2f 42 35 aa ec 3f
       0.14772703457035907 0.8957773487749267
000110 ae 99 8e 38 69 c8 26 40 4d e0 f9 43 b8 cc 22 40
       11.391427771956696 9.399843334438765
000120 e0 6c 49 83 3a d6 31 c0 b3 5a 31 2c 1c 8a 37 c0
       -17.83683033506975 -23.539492380189312
000130 58 f0 42 21 bd d5 1a c0 90 17 a0 21 ce ab 2a 40
       -6.708729285917876 13.335557032387243
000140 89 e9 b3 67 0b 40 e2 3f 19 15 4a 6a ff f1 e3 3f
       0.5703179383702245 0.6232907367672481
000150 0a 36 64 87 ee 99 18 40 3d fc f3 82 82 4c 2b 40
       6.150323977939033 13.6494332239946
000160 73 8b 45 32 4a 0d 26 c0 c1 ba 14 31 5d e8 29 c0
       -11.025956698407503 -12.953835996418436
000170 4d 96 fc c6 33 42 16 40 18 25 ed 48 88 cf 0d 40
       5.564650639692968 3.7263341615076904
000180 af 65 1f 67 6c 97 68 3f 14 90 32 e2 41 2a e4 3f
       0.0030018918268807852 0.6301583688659798
000190 22 40 0d 8d 36 93 f1 bf e1 e4 53 6a ec 51 2e 40
       -1.0984406957468384 15.160006830922102
0001a0 e5 ce 30 c0 e5 e6 f1 bf 18 83 02 68 9e b0 14 40
       -1.1188714511344469 5.1724792720349555
0001b0 9b 64 f3 12 9e ff 25 40 32 96 77 22 35 56 05 c0
       10.999252884112414 -2.6670935337777104
0001c0 4e 82 ea 6c 32 6d a7 3f b3 e0 18 0a 78 b8 e5 3f
       0.04575498179952274 0.6787681767664452
0001d0 33 57 18 df b2 af f3 bf 3d 7f f8 bf 36 c4 f9 bf
       -1.2303951944972595 -1.6104037760596406
0001e0 da d9 fb ca b5 7e 10 40 b5 c1 aa ca 6f d8 11 40
       4.123740359899296 4.461363951370392
0001f0 5c b9 d5 15 48 c0 0d c0 80 2a 24 6d e9 c3 f3 bf
       -3.718887491783944 -1.23533003457365
000200 89 2a b6 82 d8 1e 74 3f 05 9c fe ee 86 9f c1 3f
       0.004912229294300582 0.13768088025719308
000210 88 7e db c9 d6 97 ed 3f f0 fb 37 90 b0 e4 f0 bf
       0.9247850363280614 -1.0558324464361668
000220 1e 07 60 6b ad 92 13 c0 43 c7 34 12 9c d3 f6 3f
       -4.893239667640755 1.426662512891611
000230 2f 12 8e c2 13 a1 2b c0 09 3b fb 3a f7 ba 36 40
       -13.814603881685882 22.730334936462018
000240 b5 6f 42 34 95 28 ea 3f 85 03 86 48 38 7f cc 3f
       0.8174539585775081 0.22263244191347212
000250 0b 14 0d 70 5e 59 d5 3f e7 d5 55 87 26 26 16 c0
       0.33357964460839246 -5.537256350149142
000260 d2 55 78 e4 8b 29 37 c0 05 a8 9f 89 d0 4f 2d c0
       -23.162290839556427 -14.65588789056711
000270 8f fa a7 27 41 7c 1e 40 86 66 9f ab c8 b0 ff bf
       7.621342296245202 -1.9806601242075046
000280 73 1d 2e 0d 98 2c 1a c0 39 0a 6d 31 eb e7 ac 3f
       -6.543548780383719 0.05645689943641625
000290 79 ba 15 ed 64 00 e2 3f 92 a8 74 5d c8 c0 14 c0
       0.5625481253208157 -5.188264332051533
0002a0 c0 ad 54 aa 58 32 17 c0 dc 6c cd dd 82 dc 35 40
       -5.799166356485728 21.86137186303391
0002b0 5e 1b d4 c0 46 65 31 40 a4 9d 6c 77 ef 2d 1b c0
       17.39561085871116 -6.794858804706937
0002c0 e4 b4 8a 7f 15 f3 22 c0 b0 18 0c 36 81 78 d4 3f
       -9.474773393327673 0.3198550250821297
0002d0 48 16 de 39 f8 d9 e0 3f 06 79 d1 2c df f1 f1 bf
       0.5266076212144037 -1.1215507269585614
0002e0 28 8d 94 eb 3b f1 32 40 f7 00 e1 bc a3 05 2a 40
       18.942320560233526 13.011014845339089
0002f0 14 41 9c 3b e7 4e 34 40 c4 85 6d 81 b5 01 15 c0
       20.308215833328248 -5.251668951329922
000300 ad 8b 8a 73 8f e3 20 c0 e7 84 9e e9 da 4b eb 3f
       -8.444453821813875 0.8530096590876867
000310 b3 a1 77 8c ca 01 eb 3f b5 1a f7 9a 11 e7 1c 40
       0.8439686530592126 7.225653096515704
000320 e8 39 5e 2c dc 0d 22 40 cb 78 ec a5 09 1d 19 c0
       9.027070414068433 -6.278357117231461
000330 92 25 99 27 30 3e 3b 40 dc 10 d1 6d f9 e2 29 c0
       27.242922282113405 -12.94330924202989
000340 fe 56 54 c1 83 ea 2a c0 c3 20 4c 16 bb a4 e0 3f
       -13.458036462350261 0.5201087413306812
000350 5a 06 f2 1b c0 f0 eb 3f 6d 76 db 06 d4 94 30 c0
       0.8731384797867563 -16.581360272006737
000360 65 33 c8 b3 e0 aa f9 bf 1a 0a 36 4a de 70 f7 3f
       -1.604218199037143 1.465055742156102
000370 9a 54 53 e3 d6 fc 2b 40 d1 7b 38 8f d9 95 27 c0
       13.993826965257814 -11.792675471920946
000380 f5 77 15 5c 4a d3 29 c0 1a 0f 85 2c 76 63 e6 3f
       -12.912676694508244 0.6996413106466861
000390 70 2c 8d 98 33 a5 a5 3f ba ea a0 eb b9 f9 19 c0
       0.042276012775425253 -6.493873292633618
0003a0 16 20 36 d6 15 c2 29 c0 5a 31 3a da 7f 9d 20 40
       -12.879072851283166 8.30761606178628
0003b0 fc d2 2c 6e ff 2e 17 40 60 de 82 8e 83 e2 09 c0
       5.795896264539575 -3.2356024869621223
0003c0 8c b8 cc 45 27 74 17 c0 80 cf 98 33 c9 14 e4 3f
       -5.863431063289806 0.6275373466255445
0003d0 f2 d5 2c 4e c2 ce de 3f 8c ee f6 4a 93 42 e8 bf
       0.48136956819811794 -0.7581268753196624
0003e0 9a 53 79 0f 82 40 21 c0 b3 f8 85 28 00 85 2a c0
       -8.62599228244817 -13.259766832689229
0003f0 4a 23 9d f6 6a 26 22 40 01 55 7c f7 40 f8 25 40
       9.075034815484873 10.984870656897785
000400 3d 25 83 04 bb 43 1f 40 a7 8c 5f 87 ee a6 0c 40
       7.816143103126987 3.581509645083844
000410 69 5f 4e ed 72 2c e0 3f 77 d1 87 f0 f9 25 ef 3f
       0.5054258952031719 0.973385782037936
000420 56 aa eb 81 f5 6c e5 bf b7 fc b6 96 e8 bb 23 40
       -0.6695506608496753 9.867008886182118
000430 ce 6f 5f 8b 9d ea 13 c0 36 d1 50 05 c9 95 20 c0
       -4.979116609287258 -8.292549291720757
000440 73 b4 5f 14 68 7f 0a 40 14 99 fc 29 7a 56 e5 bf
       3.312210234804803 -0.666806299214644
000450 9a 10 d7 56 90 3d d1 bf cd 47 ac 3d 6d cb d4 3f
       -0.2693825576827834 0.3249161817813018
000460 2a 00 6f 96 23 8e 25 40 bb 28 6e e0 f9 38 24 40
       10.777615262079127 10.111281407782704
000470 84 c9 48 7f c4 e8 ed bf da 1d f9 cb 12 6e 26 40
       -0.9346640096685381 11.214987157973997
000480 99 4b 68 86 91 9b 14 c0 fd 7b 77 bc 26 2a 1b 40
       -5.151922321429901 6.7911633918693015
000490 96 b6 89 f0 82 24 dc 3f ac a0 07 0f 43 11 e2 3f
       0.4397284840586989 0.5646071713972751
0004a0 d1 cc 29 60 ba 0c 21 40 bb 6b 99 c1 28 56 e5 bf
       8.52485943327193 -0.6667674809681253
0004b0 eb e4 d9 fd 0d 4c 17 c0 e7 e2 37 16 72 36 0f 40
       -5.8242721237413475 3.9015847907834202
0004c0 ae 4b 55 dd b2 2a 0b 40 2a e5 c3 98 7c e9 1e 40
       3.395848969617382 7.728014361340039
0004d0 ff 62 15 50 42 95 82 bf ea 80 e7 37 73 dc e6 3f
       -0.009073751515346283 0.7144104091530867
0004e0 6f 0b c6 ea c1 96 08 c0 71 40 fb f4 48 e1 3a c0
       -3.0736120549858508 -26.880019484844926
0004f0 75 56 4d 1e d7 49 39 c0 7d bc 79 86 dd 3b e8 bf
       -25.288438695794373 -0.7573077799296609
000500 62 c5 0d d9 bf 40 01 c0 18 de f4 d2 15 de f0 3f
       -2.1566159207656463 1.054220031784899
000510 c0 23 6d d7 2b 85 8b 3f 4c 03 3e 32 eb b2 dc 3f
       0.01343759776286102 0.44842033297031914
000520 73 a2 0a 30 be 36 05 c0 ce 14 50 86 54 41 2e c0
       -2.6517299416776097 -15.127597996974512
000530 af 36 7b 79 09 9a 10 c0 4d d7 0f 89 0a 45 10 40
       -4.150426767487871 4.0674230018538085
000540 34 27 2a d8 d1 b3 2b c0 ce 8b 93 b7 0b 1e 1f c0
       -13.851210360665938 -7.779341572170734
000550 a0 91 81 cc 18 8e ae 3f c2 23 09 65 f0 9c da 3f
       0.05967786308682155 0.41582879893081437
000560 4f f4 3d 50 04 eb 1f 40 10 e5 9a 30 06 97 14 40
       7.979508641988175 5.147484549955394
000570 bd 0e bd e8 d2 07 36 40 a7 3c e7 b5 84 62 31 c0
       22.03056196799911 -17.384837502435996
000580 a5 2f 8a fe 34 a9 3a c0 96 40 41 05 9f f8 28 c0
       -26.660964878784984 -12.485588230338447
000590 b0 15 d2 d5 0d a4 d4 3f 00 fc a6 82 e4 af 82 3f
       0.32251306420252046 0.009124551045600171
0005a0 30 8a b1 6c 85 8d 1e 40 6a b1 8c f7 f2 86 26 40
       7.638204286895913 11.263572441029016
0005b0 97 b1 67 40 86 46 3e 40 1f bd b1 28 84 44 2e 40
       30.275486016574714 15.133820792862535
0005c0 67 86 66 1b 52 4e 29 40 77 0d da 0e 80 95 27 40
       12.652970176949749 11.791992630117177
0005d0 49 9e 37 9b 48 2a fb 3f 95 80 84 9c a8 c4 e0 3f
       1.6978231490301303 0.5240061814293023
0005e0 15 fe 4c 78 64 03 e9 3f e4 bf 0e b7 8a e9 24 40
       0.7816641187309324 10.456136436987386
0005f0 36 62 73 8d 88 49 0f c0 75 b7 de c3 36 de f0 3f
       -3.9109049845540325 1.0542514468356476
000600 ad 30 8a 24 4c 8b 40 40 85 0f e2 5e 4f cf 39 40
       33.08826119182172 25.809804849806387
000610 4c 7c 58 0a c0 f0 f9 3f 46 2b 28 c3 bc 6f d1 3f
       1.621276894009287 0.27244490679065725
000620 08 fc b3 60 db 20 c8 3f ca c7 1c c0 75 24 15 40
       0.1885027143652851 5.285605432278269
000630 19 86 43 49 ff 19 17 40 12 ba d1 d5 72 4d 2d 40
       5.775387902017905 14.651266748286648
000640 8f 25 1a ea f2 af 36 40 13 59 0e 88 68 25 16 40
       22.68730033052776 5.536531568408708
000650 d0 16 24 0c 7d 45 e8 3f 42 84 19 e8 7a 0f db 3f
       0.7584824788216 0.42281983057006667
000660 84 d4 e4 1e e8 4c ee 3f e2 60 fb 64 43 7e a0 bf
       0.946888027515016 -0.03221331222238334
000670 1a 92 60 14 8b 1a 10 40 15 df dc 98 9e 27 21 c0
       4.025921171564301 -8.577381875001757
000680 4c 07 fc 94 c5 e1 0c 40 59 e5 b7 97 ac 40 19 40
       3.6102401389515872 6.313158388709177
000690 de 95 4a ed 96 d9 22 40 96 ab 01 39 ba 05 9e 3f
       9.424979606012979 0.029318723420526625
0006a0 99 d1 8f ab 86 79 e2 3f 49 0f 6b 8f 6a d0 1b c0
       0.5773347235504388 -6.953531495007902
0006b0 a4 b2 e5 16 9c 28 37 c0 1a f8 8e ef a8 9d 3f c0
       -23.158631735876625 -31.6158590053602
0006c0 28 03 4d 3e f1 0b 30 40 ff df 26 19 f7 41 29 c0
       16.04664983158287 -12.628838335032922
0006d0 2d 12 06 0a c8 09 07 40 c3 a5 00 e4 99 0d e1 3f
       2.879776075659058 0.5329102948355103
0006e0 55 da 94 83 ba 30 eb 3f 3b 19 73 28 f9 1f 13 c0
       0.8496983118009874 -4.781223899865206
0006f0 cd eb 2d 7d 39 9a 3a c0 f9 20 bc ef 6f 98 f0 bf
       -26.602439712248998 -1.0372161259311368
000700 6d 62 86 f5 3b 22 2a 40 f3 40 b8 fd ed 6c 29 c0
       13.06686370149074 -12.712753227941425
000710 a2 da bf 97 f9 df 18 c0 b4 96 21 28 0b a2 c6 3f
       -6.2187255583618555 0.176820177645984
000720 d0 5c d3 59 90 e7 d7 3f 7e 9d 3c 9f c3 ea fb bf
       0.37350853702578224 -1.744815465944924
000730 13 92 96 80 ba 9b 34 c0 bd a1 d4 6e 4f f8 14 c0
       -20.608314549217607 -5.242490512588515
000740 30 1b 10 90 e9 f4 31 40 8c fa 42 99 dc a4 1e 40
       17.956688884670427 7.6609977671747735
000750 ad e4 ad a8 90 52 1c 40 65 06 b9 4c 2b 42 e8 3f
       7.080629954923251 0.758077287530068
000760 89 68 2a fd 0b ba ea 3f 91 87 dd 9a 5d df bc bf
       0.8352107948915243 -0.11278328925030069
000770 a1 d7 71 8f 69 96 14 c0 c1 e4 09 e8 3f dc 35 c0
       -5.146887055705435 -21.86035013429205
000780 29 4f a3 18 e3 1f 1d c0 b3 d5 2b c4 1d 60 23 40
       -7.281139740913013 9.687727098799632
000790 a7 1e 54 66 ec 3a 2d 40 d4 cd 86 cb f1 35 e0 3f
       14.615084836739085 0.5065850234154206
0007a0 60 c5 c7 a8 eb de c4 3f 56 4f c1 2e 45 8e 01 40
       0.16305299512127203 2.1944678929084303
0007b0 15 76 bd 81 a6 10 21 40 cd 09 b4 03 5e d8 0a c0
       8.532520346047969 -3.35564806836303
0007c0 2b 60 85 ce 1e 49 15 40 0c 63 a7 e5 e4 2d 32 40
       5.32140658082066 18.179273942342704
0007d0 fe f7 38 df 7b 9c 00 c0 22 46 e0 66 a5 06 ed bf
       -2.076408142019317 -0.9070612916277165
0007e0 16 09 97 11 b8 4b db 3f 87 f6 48 1a 99 88 14 40
       0.4264965221192524 5.133396540358837
0007f0 7f 33 ce 1e 61 d1 35 40 5f 8b c8 84 a9 d3 0e 40
       21.817888188688354 3.853350674982195
